…
[2024-04-26 22:29:39] [DEBU] Creating converter from 7 to 5
[2024-04-26 22:29:39] [DEBU] Creating converter from 5 to 7
[2024-04-26 22:29:39] [DEBU] Creating converter from 7 to 5
[2024-04-26 22:29:39] [DEBU] Creating converter from 5 to 7
[2024-04-26 22:29:40] [INFO] Tensorboard is enabled. Write events to home/yang/toolbox/ECCV2024/CodePlace/Results/train/events.
[2024-04-26 22:29:40] [INFO] Using Single-GPU mode
[2024-04-26 22:30:24] [INFO] Data loader created: 44.325s collapsed.
[2024-04-26 22:30:25] [INFO] Model description:
PatchSGIEAligner(
  (reduce_layers): EncodeChannelSize(
    (conv): Sequential(
      (0): Conv2d(1536, 1536, kernel_size=(3, 3), stride=(1, 1), padding=(1, 1), groups=1536, bias=False)
      (1): GELU(approximate='none')
      (2): SE(
        (avg_pool): AdaptiveAvgPool2d(output_size=1)
        (fc): Sequential(
          (0): Linear(in_features=1536, out_features=384, bias=False)
          (1): GELU(approximate='none')
          (2): Linear(in_features=384, out_features=1536, bias=False)
          (3): Sigmoid()
        )
      )
      (3): Conv2d(1536, 1536, kernel_size=(1, 1), stride=(1, 1), bias=False)
    )
    (norm2): LayerNorm((1536,), eps=1e-05, elementwise_affine=True)
    (norm1): LayerNorm((1536,), eps=1e-05, elementwise_affine=True)
  )
  (patch_encoder): Mlps(
    (mlp_layers): Sequential(
      (0): Linear(in_features=1536, out_features=512, bias=True)
      (1): GELU(approximate='none')
      (2): Dropout(p=0.1, inplace=False)
      (3): Linear(in_features=512, out_features=400, bias=True)
      (4): Dropout(p=0.1, inplace=False)
    )
  )
  (patch_gcn): PatchCNN(
    (blocks): Sequential(
      (0): Residual(
        (conv1): Conv2d(400, 400, kernel_size=(3, 3), stride=(1, 1), padding=(1, 1))
        (conv2): Conv2d(400, 400, kernel_size=(3, 3), stride=(1, 1), padding=(1, 1))
        (bn1): BatchNorm2d(400, eps=1e-05, momentum=0.1, affine=True, track_running_stats=True)
        (bn2): BatchNorm2d(400, eps=1e-05, momentum=0.1, affine=True, track_running_stats=True)
      )
    )
  )
  (sg_encoder): MultiModalEncoder(
    (object_encoder): PointNetfeat(
      (relu): ReLU()
      (conv1): Conv1d(3, 64, kernel_size=(1,), stride=(1,))
      (conv2): Conv1d(64, 128, kernel_size=(1,), stride=(1,))
      (conv3): Conv1d(128, 256, kernel_size=(1,), stride=(1,))
      (bn1): BatchNorm1d(64, eps=1e-05, momentum=0.1, affine=True, track_running_stats=True)
      (bn2): BatchNorm1d(128, eps=1e-05, momentum=0.1, affine=True, track_running_stats=True)
      (bn3): BatchNorm1d(256, eps=1e-05, momentum=0.1, affine=True, track_running_stats=True)
    )
    (object_embedding): Linear(in_features=256, out_features=100, bias=True)
    (structure_encoder): MultiGAT(
      (layer_stack): ModuleList(
        (0): GATConv(3, 128, heads=2)
        (1): GATConv(256, 128, heads=2)
      )
    )
    (structure_embedding): Linear(in_features=256, out_features=100, bias=True)
    (meta_embedding_rel): Linear(in_features=41, out_features=100, bias=True)
    (meta_embedding_attr): Linear(in_features=164, out_features=100, bias=True)
    (img_patch_encoder): Mlps(
      (mlp_layers): Sequential(
        (0): Linear(in_features=1536, out_features=512, bias=True)
        (1): GELU(approximate='none')
        (2): Dropout(p=0.0, inplace=False)
        (3): Linear(in_features=512, out_features=256, bias=True)
        (4): Dropout(p=0.0, inplace=False)
      )
    )
    (pose_encoder): Mlps(
      (mlp_layers): Sequential(
        (0): Linear(in_features=7, out_features=128, bias=True)
        (1): GELU(approximate='none')
        (2): Dropout(p=0.0, inplace=False)
        (3): Linear(in_features=128, out_features=256, bias=True)
        (4): Dropout(p=0.0, inplace=False)
      )
    )
    (multiview_encoder): PatchAggregator(
      (transformer_encoder): TransformerEncoderLayer(
        (self_attn): Attention(
          (softmax): Softmax(dim=-1)
          (to_qkv): Linear(in_features=256, out_features=768, bias=True)
          (to_out): Linear(in_features=256, out_features=256, bias=False)
        )
        (norm): LayerNorm((256,), eps=1e-05, elementwise_affine=True)
        (acti_layer): GELU(approximate='none')
      )
    )
    (multiview_norm): LayerNorm((256,), eps=1e-05, elementwise_affine=True)
    (img_patch_embedding): Linear(in_features=256, out_features=256, bias=True)
    (fusion): MultiModalFusion()
  )
  (obj_embedding_encoder): Mlps(
    (mlp_layers): Sequential(
      (0): Linear(in_features=656, out_features=512, bias=True)
      (1): GELU(approximate='none')
      (2): Dropout(p=0.1, inplace=False)
      (3): Linear(in_features=512, out_features=512, bias=True)
      (4): GELU(approximate='none')
      (5): Dropout(p=0.1, inplace=False)
      (6): Linear(in_features=512, out_features=400, bias=True)
      (7): Dropout(p=0.1, inplace=False)
    )
  )
)
[2024-04-26 22:30:25] [INFO] Initialisation Complete
[2024-04-26 22:31:38] [INFO] Epoch: 1/10500, iter: 20/17919, loss: 6.547900, loss_NT: 6.554898, loss_T: 6.540901, matched_success_ratio_NT: 0.003031, matched_success_ratio_T: 0.004353, lr: 0.001100, lr: 1.100e-03, time: 3.362s/2.566s
[2024-04-26 22:32:11] [INFO] Epoch: 1/10500, iter: 40/17919, loss: 6.199419, loss_NT: 6.208358, loss_T: 6.190480, matched_success_ratio_NT: 0.003873, matched_success_ratio_T: 0.006839, lr: 0.001100, lr: 1.100e-03, time: 1.754s/2.024s
